backend/gnn_qlearning.pth (torch, 5252 bytes, 5 tensors)

conv1.bias f4 [32]
00000000: 710d 00b9 0000 0000 244c c83e 0101 bd3e
00000010: 0000 0000 f017 c73e 0000 0000 1ff0 ca3e
00000020: f35b c53e c5f6 12be 8565 aabe 0000 0000
00000030: 0000 0000 49fc 0ebd 9b79 cf3e 2b1a c43e
00000040: af66 9c3e 0000 0000 0000 0000 0000 0000
00000050: 9f44 c73e 2e13 b2bc 0000 0000 1efd c23e
00000060: 3d43 c7be 0000 0000 9fd4 c83e 0000 0000
00000070: 0000 0000 0000 0000 0000 0000 3ad9 953e
-0.00012212039 0.0 0.3912059 0.36914828 0.0 0.3888545 0.0 0.39636323
0.38546714 -0.14351948 -0.33280578 0.0 0.0 -0.034908567 0.40522465 0.38301215
0.3054709 0.0 0.0 0.0 0.3891954 -0.021737661 0.0 0.38083738
-0.38918486 0.0 0.39224717 0.0 0.0 0.0 0.0 0.29267293

conv1.lin.weight f4 [32, 1]
00000000: b171 99bb 2939 96be 504e 123f 1af6 253f
00000010: 42a9 d5be 3b94 b23e 847b c6be ce09 f33e
00000020: e994 e53e 9f24 893d 4c4d 873e 06f8 7abe
00000030: 6156 dbbd a702 433e 6d62 a53e 3ab0 8d3e
00000040: 4ba6 d73e 0c61 9ebd 6c96 a9be 0f13 f9bd
00000050: 2de3 ba3e d8d9 79ba 6bc2 49be 1ff8 a33e
00000060: 80f4 9e3e a015 3dbe b2ed 163f 6082 a1be
00000070: 11d3 b7be 4643 18bd b412 4cbc 4f26 203f
-0.0046827425 -0.29340485 0.57150745 0.64828646 -0.41730696 0.34878716 -0.3876611 0.47468418
0.44840172 0.06696438 0.2642616 -0.24508676 -0.10709835 0.1904398 0.32301655 0.27673513
0.4211906 -0.07733354 -0.33122575 -0.12161838 0.36501446 -0.00095310574 -0.19703071 0.3202524
0.31045914 -0.1846528 0.58956444 -0.3154478 -0.35903218 -0.037173532 -0.012455631 0.62558454

conv2.bias f4 [16]
00000000: e280 d33e 7119 39bc 7bcd d33e 0840 d43e
00000010: 65be d93e 290b b3bc 3f71 d33e 5730 da3e
00000020: 78ac d73e dac9 c4bb 0000 0000 0000 0000
00000030: 0000 0000 a9d0 093f 0000 0000 0000 0000
0.41309267 -0.01129757 0.41367707 0.41455102 0.42528072 -0.021855908 0.41297337 0.42615005
0.4212377 -0.006005508 0.0 0.0 0.0 0.53834015 0.0 0.0

conv2.lin.weight f4 [16, 32]
00000000: 2175 a5bd 88a5 6bbe 1436 193f 405b 063f
00000010: 161a 72bd 7369 1f3f a19a a3be 56bf 033f
00000020: 5488 a83e d11b 44be dffe a8bf d94f a63e
00000030: 180c bc3d 8c5f 5fbe e7f1 093f e606 b13e
00000040: 5789 b13e bf85 213d 0092 a0be 388c 3f3d
00000050: fac0 8f3e 0de6 e1bc c071 10be f8a7 2b3f
00000060: 1e16 82bf 35b1 b43e bc23 6b3e 659a 543e
00000070: c355 d2bd 2264 f2bd 9809 1bbe bbe3 e43e
00000080: 56d3 8abe d2af 1b3e 4774 a9be c532 cc3d
00000090: 85f8 32be 9e65 a23e b74e c9bd 9602 263e
000000a0: bb28 573c 3349 9bbd a362 a8be 4e53 f03d
000000b0: ea54 36bd e338 5abe e88b 79be e996 56be
000000c0: 6c29 f33d 0959 a33d bd73 91be c5f8 11be
000000d0: 70c6 10bd af3b 7cbe 0dab 86be 974a 093e
000000e0: 9947 aa3e c998 cdba 1930 a2be bd38 453e
000000f0: c80b fcbd 7042 853e 5614 01bd 885c 443e
00000100: 97c2 a63e 40ff eabd 23d3 ac3e 4809 a33e
00000110: 1b66 21bd 534c 203e 90e8 a3be f277 573e
00000120: 81d7 ab3e a1dd 52be 6d32 29bf 4365 82be
00000130: 727d 1ebe ed4b 3dbc 5d07 ff3e 479c be3e
00000140: a2b8 953e 59ab 1abe 63e1 773e 643d a3bd
00000150: 7e47 863d ea67 d5bd 120e a6be c702 103f
00000160: d0d4 97bf 1d29 263d dabe 193f 1b86 d3bd
00000170: a18d 18be 098c 0a3e e2cd 8abb dd88 003f
00000180: 0bd2 f1bc 9c88 273e 93c7 9e3e 2ef5 7c3e
00000190: 725f 6e3d a74b cd3e f7b7 42be 2cb0 263f
000001a0: c354 263f da22 8e3e 59ca 60bf 87a5 d3bc
000001b0: 0b30 af3e 8fc6 8a3d a487 1a3f e942 173f
000001c0: 1935 c13e 05ef 033e ffe5 90be acd9 363e
000001d0: efdd 153f 0d66 7bbe 2d6b 5cbe c30b 2f3f
000001e0: 21e0 84bf d8ce b03e b1eb 233c 53c5 6abe
000001f0: d0e8 51be c607 cfbc f025 833d 4a12 5e3e
00000200: 668c 92be 57ca a53e 1197 a93e 99cf b33e
00000210: 99a2 6a3d 5cc0 1b3f 715d aa3d ba5f 1f3f
00000220: cd07 2d3e 5a19 8fbe 2188 8dbf 63a7 4cbe
00000230: a7fa 3c3e bdf7 74bd a42e 223f 968b a03e
00000240: 10f7 9b3e d076 253e b9d7 5b3e 7efd 513e
00000250: 3ae1 e53e 8e72 9b3d 1a41 833e d5cc 613e
00000260: 7098 77bf 9915 9a3d 2741 123f 9059 6bbd
00000270: 337c 9d3d a8a6 0dbe 6e67 69be 9986 ae3a
00000280: beec d9bd 3ce5 0fbe 7df3 b0be 5019 213d
00000290: 18a0 76be 5d35 733e e2ba 123d 15d8 983e
000002a0: a1de 53be 4bd9 afbe 1ee8 7c3d 608c d83c
000002b0: 0e23 513e 1ead 84be bb6d bebe 1cfc a3be
000002c0: c635 8e3e 7111 fbbc 6b67 5cbe d9d0 053c
000002d0: a08a de3d a80d 25bd e0f1 723e 32c0 3c3d
000002e0: 9e46 043e 8b38 1c3e 5d74 473e 928b 103e
000002f0: 945b abbd 8dfd 403d f68d afbe 9408 d9bc
00000300: d5ba 133e c7db 3dbe f310 ba3e a0da 9b3e
00000310: 192a 6b3e dd02 813e 0f52 0d3e c821 b23e
00000320: b2ae 1a3f 43c0 e6bd 6e1a a2bf 2f40 6dbe
00000330: 7ec7 9cbd 2d92 1f3d cbb3 293d f829 ac3d
00000340: 5688 d13d 0d5f 963e b03a 8a3e abf8 eebc
00000350: c839 163f 4a05 3e3e fa6c 3abe 9236 0c3e
00000360: 25ff 93bf 3242 30be 02d3 163f b7e0 b4be
00000370: 4edc 93be 45b3 103e 3d50 213e 171b 063f
00000380: 37d9 96bd a1ba 873e 3309 9c3c 7daf b13e
00000390: a6c5 76be bfeb 8d3d 9874 9ebe 9c6f c63e
000003a0: 86c3 cc3d 7c49 ca3e fc41 9cbf 13f3 27be
000003b0: 3bb5 8cbe 74c3 a53e 9ebb 103f 75ec 173f
000003c0: 0946 0d3f 84c2 60be 505b 55bd 682c 24be
000003d0: 8431 d53c cfc1 02be 2964 34be e5d8 1b3d
000003e0: dcf2 2cbf d592 ec3d b48b e13e 5205 e4bd
000003f0: af65 54bb 98d9 c9bb aee9 543e d5f0 f03e
-0.08078981 -0.23012364 0.5984814 0.52482986 -0.05910691 0.6227028 -0.3195391 0.5146383
0.3291651 -0.19151236 -1.320278 0.32482794 0.09181994 -0.21813792 0.5388474 0.34575576
0.34675094 0.03943419 -0.3136139 0.046764582 0.28076917 -0.027575517 -0.14105892 0.67053175
-1.0163 0.35291448 0.2296285 0.20762022 -0.10270264 -0.11835505 -0.15140378 0.44704995
-0.27114362 0.15203789 -0.33096525 0.09970621 -0.17477615 0.31718153 -0.09829467 0.16211924
0.0131322695 -0.07582321 -0.32887754 0.11734639 -0.044514574 -0.21310763 -0.24369776 -0.20956005
0.11873135 0.079759665 -0.28408614 -0.14255054 -0.035345495 -0.24632142 -0.26302376 0.1340736
0.3325775 -0.0015685792 -0.3167732 0.19259925 -0.123069346 0.2602725 -0.031513534 0.19175923
0.32570335 -0.11474466 0.33754835 0.3184302 -0.039404016 0.15654115 -0.3201337 0.2104185
0.33562854 -0.20592357 -0.6609257 -0.25467882 -0.15477541 -0.011553747 0.49810305 0.37228605
0.29242426 -0.15104426 0.24207072 -0.07970694 0.06556605 -0.10420211 -0.3243261 0.5625424
-1.186182 0.040566552 0.6005684 -0.10328313 -0.14897777 0.13529982 -0.004235969 0.50208837
-0.029519102 0.16360706 0.31011638 0.24702904 0.058196492 0.4009678 -0.1901549 0.65112567
0.64973086 0.27760965 -0.8780876 -0.025835766 0.3421634 0.06776153 0.6036322 0.5908647
0.37735823 0.12884147 -0.28300473 0.17856473 0.5854177 -0.24550648 -0.2152526 0.6837732
-1.0380899 0.3453281 0.010004924 -0.22926836 -0.20498967 -0.025272261 0.064037204 0.21686664
-0.2862274 0.32380936 0.33123067 0.35119322 0.05728397 0.6084039 0.08318604 0.6225544
0.16897507 -0.2794903 -1.1057168 -0.19985728 0.18454991 -0.059806574 0.6335242 0.31356496
0.3046193 0.16158605 0.2146901 0.20506856 0.44898397 0.07590209 0.25635606 0.22050793
-0.96716976 0.07523651 0.57130665 -0.05745846 0.07689705 -0.13833106 -0.22793362 0.001331526
-0.10640858 -0.1405229 -0.34560767 0.03933078 -0.24084508 0.23750825 0.035822757 0.29852358
-0.20690395 -0.3434547 0.0617448 0.026434124 0.20423529 -0.25913328 -0.37193093 -0.32028282
0.277754 -0.030647965 -0.21523826 0.008167469 0.10866284 -0.040296227 0.2372508 0.04608173
0.12917563 0.15255944 0.19477983 0.14115742 -0.083670765 0.047116805 -0.34287995 -0.026493348
0.1442674 -0.1854087 0.36341056 0.30440235 0.22965278 0.25197497 0.13800834 0.34791398
0.60422814 -0.1126714 -1.2664316 -0.23169015 -0.076552376 0.038957763 0.04143123 0.084064424
0.10231082 0.29369393 0.269979 -0.029171309 0.5868192 0.18556705 -0.18205634 0.13692692
-1.1562239 -0.17212752 0.5891572 -0.35327694 -0.28879017 0.14130886 0.15753265 0.52385086
-0.07365649 0.26509574 0.019047355 0.347042 -0.24098834 0.069297306 -0.3094833 0.38757026
0.09998231 0.3950919 -1.2207637 -0.16401319 -0.27482018 0.3237568 0.5653628 0.5934518
0.5518499 -0.21949202 -0.052089036 -0.16032565 0.026024587 -0.12769245 -0.17616333 0.038048644
-0.67558074 0.115514435 0.44051898 -0.11133827 -0.003240924 -0.0061599724 0.20792267 0.4705874

conv3.lin.weight f4 [1, 16]
00000000: 1e3b e23e 58a6 e4be 9d8d fa3e 3702 5e3f
00000010: a66c 693f a149 6dbe b5f5 3f3f 725d 9a3e
00000020: 294b a83e 52c2 dcbe 6af5 48be 6e10 b83d
00000030: 2e21 1dbe 036c 1d3f de77 f5bd 159e 8cbe
0.44185728 -0.4465816 0.48936167 0.8672213 0.9118141 -0.23172618 0.74984294 0.30149418
0.32869843 -0.43117005 -0.19624868 0.08987509 -0.15344688 0.6149294 -0.119857535 -0.27464357
