backend/gnn_qlearning.pth (torch, 14536 bytes, 7 tensors)

conv1.bias f4 [64]
000000 55 49 9c 3e 8d ce b1 bd 00 00 00 00 e8 36 c5 be
       0.30524698 -0.086819746 0.0 -0.38518453
000010 00 00 00 00 00 00 00 00 7e c8 d8 be f8 f1 eb 3d
       0.0 0.0 -0.42340463 0.11520761
000020 c1 d6 93 3e 52 21 86 bc 00 00 00 00 44 72 08 bc
       0.28874782 -0.01637331 0.0 -0.008328024
000030 78 46 dd 3e fb d4 68 be 7c c1 c9 3e ec f2 11 bd
       0.43217826 -0.22737496 0.3940543 -0.03563206
000040 99 f8 8a be e5 37 82 bc 0f 49 e9 b8 00 00 00 00
       -0.2714279 -0.015895793 -0.00011123914 0.0
000050 00 00 00 00 17 44 de bc e1 78 e6 be ca 2b bf 3e
       0.0 -0.027132077 -0.45014098 0.37338096
000060 d0 6a b6 3e 00 00 00 00 00 00 00 00 c8 93 4b bd
       0.35628366 0.0 0.0 -0.049701482
000070 6e ea d6 be 00 00 00 00 00 00 00 00 f0 18 bf 3e
       -0.4197573 0.0 0.0 0.37323713
000080 fe e5 58 ba 83 d8 a3 be bb 82 ea 3e 00 00 00 00
       -0.00082740176 -0.32001123 0.45802864 0.0
000090 00 00 00 00 00 00 00 00 b0 03 8f bd 00 00 00 00
       0.0 0.0 -0.06983125 0.0
0000a0 00 00 00 00 b0 c0 8a be cb ca 0f bd 00 00 00 00
       0.0 -0.27100134 -0.035105508 0.0
0000b0 ae 4e 20 bd 63 c4 9c bd 00 00 00 00 3b 2c 89 be
       -0.039137535 -0.07654645 0.0 -0.26791558
0000c0 06 d6 e9 ba 00 00 00 00 74 ba df 3d b4 79 cc bd
       -0.0017840273 0.0 0.10924235 -0.099841505
0000d0 00 00 00 00 00 00 00 00 00 00 00 00 00 00 00 00
       0.0 0.0 0.0 0.0
0000e0 34 aa f0 3e 0d f5 dd bc 00 00 00 00 b9 ee 90 b8
       0.47004855 -0.027094388 0.0 -6.910921e-05
0000f0 00 00 00 00 40 fc 7b be 90 19 8f 3e 2e 0d 95 bc
       0.0 -0.24607944 0.2794919 -0.018194761

conv1.lin.weight f4 [64, 1]
000000 7a 85 30 be 9a c7 26 3d 4b 29 38 be d5 3f 3b 3e
       -0.17238417 0.0407177 -0.17984502 0.18286069
000010 34 8d b8 bc 9e 26 9a be 0c 89 4e 3e a8 2c 9d 3e
       -0.022528268 -0.30107588 0.20169467 0.30698133
000020 b4 ba 25 be 5e 72 4d bb fe 14 33 be e7 9c a2 3a
       -0.16184503 -0.0031348686 -0.17488477 0.001240638
000030 89 8a 58 be ee a8 d1 3d 55 b6 60 be 49 90 53 3c
       -0.21146597 0.10237299 -0.21944554 0.012912818
000040 ae d1 03 3e 70 8f b0 bb da 22 78 bc 06 75 0e bd
       0.12872955 -0.005388193 -0.015145028 -0.03477957
000050 ed 39 39 bd 63 af 46 ba a8 49 db 3e 6d 01 05 3e
       -0.045221258 -0.0007579235 0.42829633 0.12988825
000060 af b2 2f be 66 e0 0b bd 89 04 13 bc 6e b6 78 3c
       -0.17158006 -0.03414955 -0.008973249 0.015180213
000070 36 b1 4c 3e 78 7b df bb 57 e5 66 be a5 35 40 be
       0.19989476 -0.0068201385 -0.22548424 -0.18770464
000080 7b da 5e bc 95 6b 19 3e 38 66 68 be a3 df 5d bd
       -0.0136018945 0.14982446 -0.22695243 -0.054168355
000090 ea 5e ca bd b9 14 7a bd cf 6a 07 3d f3 a9 8c bc
       -0.09881385 -0.06105492 0.033060845 -0.017170882
0000a0 84 7f 9b be e6 03 04 3e 9e 13 3a 3c 20 fb 3a bc
       -0.30370724 0.12892112 0.011357216 -0.011412412
0000b0 6e f2 82 3c 30 ae 14 3d 54 8f 82 be eb 6e 9e 3e
       0.01598474 0.03629893 -0.25499976 0.30944
0000c0 2b 63 94 bd 09 77 4d be ec 60 ce 3e f0 6c 3b 3d
       -0.07245477 -0.2006494 0.4030832 0.045758188
0000d0 31 85 5f bd c2 72 ee bd 05 9d 93 be 9b df 55 be
       -0.05457038 -0.11642982 -0.28830734 -0.2088608
0000e0 4b b8 dd 3d 39 56 e8 3b 9b 49 41 be 5b cb ef bc
       0.10826167 0.0070903567 -0.18875735 -0.029271772
0000f0 8c 9e 32 bd 47 2f e9 3d 44 db 29 be 69 f6 1a 3b
       -0.043608233 0.113859706 -0.1658755 0.0023645407

conv2.bias f4 [32]
000000 3b 35 04 be ea 16 02 bd ef 78 00 bd 16 31 25 bc
       -0.12910931 -0.031760134 -0.03136533 -0.010082504
000010 c7 dd e6 bc d5 b0 8a bc 00 00 00 00 e7 da ab bc
       -0.028181924 -0.016930023 0.0 -0.020978404
000020 b8 e9 1a be 32 03 e3 bd 00 00 00 00 12 c1 f4 bc
       -0.15128219 -0.11084594 0.0 -0.02987722
000030 69 cd fa 3e 59 1e 5f bd 5d 22 b2 bd ac 18 62 bd
       0.4898484 -0.0544723 -0.086979605 -0.05519931
000040 fd c2 9c bd 00 00 00 00 47 ce 51 3d e7 9b 1f bd
       -0.076543786 0.0 0.051222112 -0.03896704
000050 88 0c cb bb 24 85 65 bd 5c 30 fa bc 32 0b be bc
       -0.006196562 -0.056035176 -0.030540638 -0.023198698
000060 60 19 05 3e 59 16 de bc 77 77 69 bc 02 f1 90 bb
       0.12997961 -0.027110266 -0.014249674 -0.0044232616
000070 d1 45 76 bc c3 17 12 bd 00 00 00 00 a1 8f 38 3f
       -0.015031294 -0.035667192 0.0 0.7209416

conv2.lin.weight f4 [32, 64]
000000 d3 12 04 3e c7 cd 1a 3e e0 5f 90 bd db 9c 11 bf
       0.12897806 0.1511756 -0.07049537 -0.5687997
000010 68 5f 00 3d 58 33 11 be 86 aa f3 be f4 4f 21 3d
       0.031340986 -0.14179742 -0.47591037 0.03938289
000020 11 28 d9 ba 82 79 67 bd b8 12 83 3d ae f2 01 3e
       -0.0016567727 -0.056512363 0.06400055 0.12690231
000030 79 7c 95 bd e0 f2 3d 3c 53 06 ac 3c 87 e4 1c 3e
       -0.07299132 0.01159355 0.02099911 0.15321551
000040 75 60 8e be aa 09 6d 3d b7 31 6a 3e 5c 28 30 3e
       -0.27807966 0.057870544 0.22870527 0.17202896
000050 84 c6 18 3e 4f 9c 8a be 98 18 9d 3d ad ba 78 bd
       0.14919478 -0.2707238 0.076707065 -0.060724903
000060 c3 d3 87 bb da da 65 3e ae 7d 5f 3e 6c f3 c3 3c
       -0.004145117 0.22446766 0.21825287 0.023919784
000070 f3 1c 05 bf 00 8a 1b 3e 94 8b 32 3e a5 3e b9 be
       -0.519973 0.15189362 0.17436057 -0.36180606
000080 39 ce 95 3d c6 e6 e1 bc cd 09 7b 3d 64 68 ac bd
       0.073147245 -0.027575862 0.061288644 -0.084183484
000090 58 80 77 3e d4 53 67 be dc a9 1d 3e 50 3d 85 3c
       0.24170053 -0.22590572 0.15396827 0.016264588
0000a0 c2 0b 47 be 6e 51 53 be a9 4d 6d be 3c 98 79 3e
       -0.19438079 -0.20636532 -0.23174156 0.24374479
0000b0 61 38 f7 3d 01 9a 34 bd 4c 64 c2 bd d0 ea 70 be
       0.120713 -0.044092182 -0.09491786 -0.23527074
0000c0 24 8e aa 3d be d8 33 be e9 94 c8 3d f0 0c b7 3d
       0.083278924 -0.1756315 0.09794027 0.089380145
0000d0 b0 d2 5f 3e 90 9f af 3d 60 43 82 bd 18 f1 0a bd
       0.21857715 0.08575356 -0.06360507 -0.03392133
0000e0 ec 7c 5c 3d 1b 61 59 be b8 b2 e0 bd c7 4a a7 be
       0.053830072 -0.21228449 -0.10971588 -0.32674238
0000f0 46 8d 52 be ee 3b 3a be 23 a3 1d be 3a c8 b7 3d
       -0.20561704 -0.18186924 -0.15394263 0.08973737
000100 55 0c 11 3e e8 e1 38 bd f0 49 ab 3d 26 28 39 be
       0.1416486 -0.045137316 0.08363712 -0.18081722
000110 16 bb 12 3e d4 5a ca 3d f8 69 2b 3e d5 e0 32 be
       0.1432918 0.09880605 0.16739643 -0.17468579
000120 c2 45 51 be 88 26 5b be 58 e2 61 bd 24 a3 5c be
       -0.20436767 -0.21401417 -0.0551475 -0.21546608
000130 b9 c3 4e 3e cc 55 d9 bd a5 03 23 3e 0b 7b 8e be
       0.2019185 -0.106120676 0.15919359 -0.2782825
000140 54 8d 79 be 54 b1 8e bd 5e d0 ef bc d8 4f 39 bd
       -0.24370319 -0.069674164 -0.029274162 -0.04524216
000150 e0 61 34 bd 6b 81 25 3d 20 73 46 bd df d4 83 3d
       -0.044038653 0.040406626 -0.048449636 0.06437086
000160 74 ea 59 bc 12 6e 33 3e 58 2b 4a 3e 4b d2 1d 3e
       -0.013300527 0.17522457 0.19743097 0.15412252
000170 30 8a 10 bd 80 66 ea 3c 14 97 03 be 2d 0d 81 be
       -0.035288036 0.028613329 -0.128506 -0.25205365
000180 fa 2f 31 be 98 f6 69 3e 33 df 28 be 58 4d 34 3d
       -0.17303458 0.22847974 -0.16491394 0.044019073
000190 d0 d2 31 be 08 b2 8a 3d 78 ab 0b be fc 98 a3 3d
       -0.17365575 0.06772238 -0.13639629 0.07988164
0001a0 d4 c2 aa bd bc fc 30 3e cf f0 8c be e2 f2 0e be
       -0.08337942 0.1728391 -0.27527472 -0.1395984
0001b0 4b 08 0f 3e f0 65 d7 3c a8 bb 49 3d f4 0d 76 3b
       0.13968007 0.026293725 0.04925123 0.0037544938
0001c0 b5 c2 fe bd a8 63 79 be b3 a2 5b be f6 83 12 3e
       -0.12439481 -0.24354422 -0.21448784 0.14308152
0001d0 34 b9 fa 3d 22 52 77 be 30 74 a2 bd f8 b8 d6 bd
       0.12242356 -0.24152425 -0.07932317 -0.10484499
0001e0 c5 3f b1 bd 44 b2 ed 3d fe 11 0e be b9 d8 e2 3b
       -0.08654741 0.11606267 -0.13874051 0.006922808
0001f0 10 eb f5 3d c0 3c 05 be 63 e6 81 be 64 de eb 3d
       0.12007725 -0.13011456 -0.25371084 0.11517027
000200 6e a6 c3 3d cb 57 80 bd 1c ca f4 bd da 42 6c bf
       0.09553228 -0.06266745 -0.11952612 -0.9228951
000210 f8 c8 99 3d d2 89 3f 3e 2a 14 d2 be ac 87 c6 bd
       0.07509035 0.18704918 -0.4103101 -0.09693846
000220 41 0f af 3e b1 4a ea 3d 9c 63 fb 3d 21 84 17 be
       0.34191325 0.114400275 0.12274858 -0.14796497
000230 81 59 99 3e 33 e8 70 be f0 83 c3 3e d1 0e 88 bd
       0.299511 -0.23526077 0.38186598 -0.06643451
000240 25 48 0c bf ce f6 7e be 48 9a 9c 3e f2 e6 76 3e
       -0.54797584 -0.24898836 0.30586457 0.24111536
000250 40 f4 7a be be 9b 54 3e d7 8b e4 bf 93 86 d9 3e
       -0.24507236 0.20762536 -1.7855176 0.42485484
000260 51 ee de 3e 40 c8 8c 3b 72 5d 05 3e ea 0d bc 3d
       0.43541196 0.0042963326 0.13023928 0.091823414
000270 0c 8e 2a bf 80 d8 22 3e 80 91 aa 3c 59 b2 f8 bd
       -0.66622996 0.159029 0.020821333 -0.12143392
000280 a4 de 81 3e 92 30 1b bf 15 20 e3 3e 84 b3 98 3d
       0.25365174 -0.6062099 0.44360414 0.07456115
000290 4a b8 21 be 62 68 09 3e 4b 98 c4 3d 40 26 db bb
       -0.15792957 0.13418725 0.0959936 -0.0066879094
0002a0 9a b4 19 3e 8b 70 1b bf b1 0a 20 be 80 6c 07 bd
       0.150103 -0.607186 -0.15629078 -0.033062458
0002b0 3a 20 ba bd d5 ca 76 bd c4 b2 76 3e 57 2b 2f be
       -0.09088178 -0.06025203 0.24091631 -0.17106377
0002c0 d4 8a 9a 3d ec ed 90 3d b4 cd 23 be 65 77 96 be
       0.075460106 0.0707663 -0.15996438 -0.29387966
0002d0 ac 91 29 3e 70 4c 0b 3d 3a 05 52 3e f8 1e 3b be
       0.16559476 0.034008443 0.20509806 -0.18273532
0002e0 8f 00 0e 3f d0 b6 20 be 6a 09 63 be 7a 3e 80 3e
       0.554696 -0.15694737 -0.2217156 0.25047666
0002f0 90 64 c6 bd 7c 55 12 bf 89 85 39 bd 32 c7 0a 3f
       -0.096871495 -0.5716169 -0.045293365 0.542102
000300 2d 9f 6d 3e 95 0b d8 3c 0c a4 c7 3d 97 3e 2d 3e
       0.23205252 0.02637271 0.09748086 0.16918407
000310 f6 8a 13 be da 9e 0e be 60 8b b5 3c c5 b7 bd bd
       -0.14408478 -0.13927785 0.022161186 -0.09263567
000320 2c 55 20 3e 3f f3 17 bd 20 af 27 3d 03 54 15 3e
       0.1565749 -0.037097212 0.040938497 0.14582829
000330 dd a0 2e be 17 60 33 be 2e 76 ff bd 25 4b 62 3e
       -0.17053552 -0.17517124 -0.12473713 0.22098978
000340 55 47 8a bd 44 fb 6a bd 23 2e 80 be 18 71 1c 3d
       -0.06751887 -0.05736853 -0.250352 0.038193792
000350 40 aa e8 bd b9 7a b1 bd 60 7f 23 be 69 eb d7 bd
       -0.113605976 -0.086659856 -0.15966558 -0.10542948
000360 fe 30 6b 3d 70 7b b5 3c aa 6a 05 be af 20 75 3e
       0.05741977 0.022153586 -0.1302897 0.23938249
000370 a9 aa bf bd 1c f1 f8 3d d4 b8 09 be 56 3c a2 3d
       -0.09358723 0.12155363 -0.13449413 0.079216644
000380 6d 37 6b bd 6a a0 16 bd f7 17 e3 3d a0 cf ca 3c
       -0.057425905 -0.036774077 0.11088555 0.024757206
000390 60 b5 0e bc 2e 40 10 3e 88 6c 62 bd 00 89 e4 3c
       -0.008710235 0.14086983 -0.055279285 0.027897358
0003a0 e4 3e 8d 3d d4 80 25 3e 42 cb 80 be 00 79 b2 bc
       0.06896761 0.16162425 -0.25155073 -0.021786213
0003b0 91 b2 76 be 55 2c c2 bc 1c 0c e9 bd fa 25 64 3d
       -0.24091555 -0.02370278 -0.11379263 0.05570028
0003c0 82 c7 29 be 90 34 4a be 86 80 0f be 60 99 51 3e
       -0.16580012 -0.19746614 -0.14013872 0.20468664
0003d0 00 9e 9e bb 0a fb 16 be ae 9f 0e 3e 64 4c 99 3d
       -0.0048406124 -0.14744201 0.139281 0.074852735
0003e0 a0 04 bd bd a8 0f 2f 3e 40 09 97 3d d2 3b 3f be
       -0.09229398 0.17095816 0.07374811 -0.18675163
0003f0 70 43 eb 3c 59 8a 54 3e a2 51 ab bd 47 ef 21 be
       0.02871868 0.207559 -0.083651796 -0.15813933

conv3.bias f4 [16]
000000 21 41 bc bd 82 6d 95 3e 5f 66 3d 3f 39 2a 4b bf
       -0.0919211 0.2918511 0.7398433 -0.793613
000010 77 04 a4 be 4f 45 88 bd 95 52 a5 be e0 01 f8 bd
       -0.32034656 -0.066538446 -0.32289568 -0.12109733
000020 90 b6 b2 3d 00 00 00 00 29 c8 88 3f db 10 89 3e
       0.08726227 0.0 1.0686084 0.26770672
000030 85 8e 89 3e 62 0f 39 bd 38 46 0c be a4 cf 81 bd
       0.26866546 -0.045180686 -0.13698661 -0.063384324

conv3.lin.weight f4 [16, 32]
000000 aa 66 e6 bd 02 4b 92 be 4a e3 38 3f cb 0d 88 be
       -0.1125005 -0.2857285 0.72221816 -0.26573023
000010 50 54 98 be 85 1f 92 3f 79 52 23 bd e7 fd 1e be
       -0.29751825 1.1415869 -0.039873574 -0.15526544
000020 38 e2 5d 3e 6b 10 db 3e 46 c1 39 3e d8 d4 d6 bc
       0.21668327 0.42785963 0.18140134 -0.026224539
000030 87 ce 45 bf 89 43 3e be 6f 6f 6e be d4 40 9b 3e
       -0.7726826 -0.1858045 -0.23284696 0.30322897
000040 d8 32 56 bd 23 26 6c bd b7 a9 3b 3f 0d 12 9f 3d
       -0.052294582 -0.057653558 0.7330584 0.07767115
000050 6a a3 9d 3e 7a b6 8a 3d 29 60 3c 3e 82 9c 0f 3d
       0.30788738 0.06773086 0.18396057 0.035061367
000060 5f 63 94 3f 07 aa 1b 3d 03 c8 69 3e 21 05 31 3e
       1.1592826 0.038003948 0.22830205 0.17287113
000070 52 76 2a 3e 6a 1d 44 3e d8 6e 62 bc 4c 46 49 bf
       0.16646698 0.19151846 -0.0138203725 -0.7862289
000080 3a 61 09 3e 80 55 1f bd 23 ef 08 bf 2b 62 a6 bd
       0.13415995 -0.0388999 -0.53489894 -0.08124193
000090 3b fb 88 be f8 af 49 bf 06 87 05 3e 67 f8 1f bd
       -0.26754174 -0.7878413 0.13039789 -0.039055254
0000a0 df 01 c7 3d 75 39 47 be 48 31 45 3e ea f8 83 be
       0.09717154 -0.19455512 0.1925708 -0.25775844
0000b0 06 e0 1c 3f 97 8f c1 bd 9c af fc 3d 78 83 82 be
       0.6127933 -0.09451216 0.12338182 -0.25490928
0000c0 5e d7 68 3e 28 99 74 be 61 be 84 3e e5 42 66 bc
       0.22738406 -0.2388655 0.25926498 -0.014054035
0000d0 d9 28 52 3e 8b 00 56 3e 01 b7 42 3d 4d eb 09 3e
       0.20523395 0.20898645 0.047537807 0.13468666
0000e0 74 4f 8e 3e f9 a2 aa be 5b b1 b8 bd c2 3b 93 be
       0.27794993 -0.33327463 -0.09018203 -0.2875653
0000f0 ef 59 0d 3e cf ea 79 be 24 df 6b be e0 72 6d 3e
       0.13803838 -0.24405979 -0.2303434 0.23188353
000100 81 a8 02 be 0c 6f dc 3d 4d 04 d7 be e3 3e 98 3e
       -0.12759592 0.10763368 -0.4199547 0.2973548
000110 a7 12 87 3e b8 2d bc be 08 ba 80 3e 9e 9f 03 3e
       0.26381418 -0.3675363 0.2514193 0.12853858
000120 6e 04 b1 be 70 0f 9a 3e 09 c8 cc 3d 0b d3 19 be
       -0.34573692 0.30089903 0.09999091 -0.15021913
000130 a1 06 4d 3f a2 06 d4 3c 6c c5 05 3e d3 50 7c 3e
       0.8008824 0.025882069 0.13063592 0.24640207
000140 78 f9 c4 be 0c 78 6b be 8f 08 60 be e8 a5 27 be
       -0.3847158 -0.22995013 -0.21878265 -0.16371882
000150 b1 3c c7 be 19 0f ae be a5 21 61 3d a2 7c 65 be
       -0.3891349 -0.33995894 0.054963727 -0.22410825
000160 dc 07 3d bf 14 2e 08 3e 74 5b 82 be 09 8f 80 bd
       -0.7384012 0.13298827 -0.25460398 -0.06277282
000170 af 05 a3 bc ec 8f 92 3e 6f 7f 8d 3e 6d 50 24 3f
       -0.019900171 0.2862543 0.27636287 0.6418522
000180 1d fd 80 3b f7 18 e3 bd cf 73 86 3f b1 4e f2 bd
       0.0039364235 -0.11088746 1.0504092 -0.118314154
000190 39 dc f8 bd 48 13 26 3f 27 f0 a0 3e d9 53 3a 3e
       -0.12151379 0.6487317 0.31433222 0.18196048
0001a0 68 33 ce 3e c7 f4 ae 3e c1 7d 78 3e 59 e9 37 3d
       0.40273595 0.34171125 0.24266721 0.044900272
0001b0 8e b0 cf bd d8 f8 dd bc e1 13 9a 3e a4 cd a0 bd
       -0.10141097 -0.027096197 0.3009329 -0.07851723
0001c0 ee 21 9b 3e 81 bc 32 3e 20 ac 3a 3f cc 8c 3b 3e
       0.30299324 0.17454721 0.7291889 0.18315428
0001d0 1c 04 42 3e 7d df 76 be a7 d2 af 3e ca ee 93 be
       0.1894688 -0.24108692 0.34340402 -0.2889312
0001e0 33 c4 7c 3f 5f d5 20 be 61 4b 17 3e 55 3a 03 bd
       0.98736876 -0.15706395 0.14774849 -0.03203805
0001f0 ca 7b 47 3e d9 aa f4 3d f9 88 02 3e 8f 86 e9 3e
       0.19480816 0.11946649 0.12747563 0.45610473
000200 54 a2 4c be e3 07 46 3e 5f f2 63 bd 19 63 fa bd
       -0.19983798 0.19338946 -0.055651065 -0.12225933
000210 ab b0 97 be cd 96 49 3e d6 20 8c be e8 9f 37 3e
       -0.29626974 0.19686432 -0.27368802 0.17932093
000220 ed 65 39 be 70 3f 25 be c5 a2 30 3e 28 a5 65 be
       -0.18105288 -0.1613748 0.17249592 -0.22426283
000230 01 4e 8a be 7c b6 83 bb 4d c7 b5 3e 3e 77 99 3e
       -0.27012637 -0.0040195566 0.35503617 0.29973787
000240 6a 12 ce 3d 22 3c c9 3d c3 7f 12 3f 30 ee 42 be
       0.10062106 0.098259225 0.572262 -0.19036174
000250 2c fb 62 3e ee 9e b1 be cf 55 72 3e 98 ab ac 3e
       0.22166127 -0.34691566 0.23665546 0.33724666
000260 a0 af b1 bf 9d ec 81 3d e6 7c 94 be 2d 45 5b 3e
       -1.3881721 0.063439585 -0.2900154 0.21413107
000270 b0 78 c0 3e 25 6a 98 be ad 9f 7e be 77 f6 ed be
       0.37592077 -0.29768482 -0.24865599 -0.464771
000280 93 9b 9b 3e 5d b5 02 3e 6b 91 32 bd 13 05 80 3d
       0.3039213 0.12764497 -0.043595713 0.06250968
000290 f5 03 9e 3d c5 4a a8 be be ed 63 3b e7 fd 6b be
       0.077155985 -0.32869545 0.0034779157 -0.23046075
0002a0 03 c3 11 3e f4 0a 50 bd 98 ea e1 bd 95 dc a9 3e
       0.14234547 -0.050791696 -0.11031073 0.33176103
0002b0 fb 09 09 be e5 49 43 be a0 66 db be eb c2 21 be
       -0.13382713 -0.19071157 -0.42851734 -0.15797012
0002c0 b0 d4 f0 3c 85 5e 3b be 16 a6 ce be a0 8c 8d 3e
       0.029398292 -0.18297775 -0.4036109 0.2764635
0002d0 ba 12 95 3e f8 58 96 be 8d a9 f8 3d 1c 39 fc 3d
       0.2911585 -0.29364753 0.12141714 0.1231558
0002e0 84 af 8f bc c2 27 8c be c9 34 f7 3b 3e 62 c8 bd
       -0.017539747 -0.27374083 0.0075441343 -0.09784363
0002f0 d2 22 bf be 36 a8 ab 3e aa 7a 28 be 5c 48 ea 3d
       -0.37331253 0.33526772 -0.16453043 0.11439583
000300 01 1e b1 3e 94 3a ad 3e 7d 41 da 3e 1c 6b 06 bc
       0.34593204 0.33833754 0.4262809 -0.008204248
000310 55 90 3a be 34 1b c6 3e 15 f9 1b 3e 21 24 e7 bc
       -0.18219121 0.3869263 0.15231736 -0.02821547
000320 5c 65 a6 3e 16 3d 36 bd ef 84 7f 3e 6e a0 b4 bd
       0.32499206 -0.04449185 0.24953054 -0.08819662
000330 4a 88 e8 3d eb cd 3a 3d b9 53 4b 3e a1 a8 24 3e
       0.1135412 0.045606535 0.19856156 0.16079952
000340 50 1a 00 3e 6c 56 d2 3d e6 17 f9 3d cd a4 7f 3d
       0.12510037 0.1027039 0.121627614 0.062413026
000350 27 85 7c bd 1a 63 a6 be 5f 53 98 be d0 49 1f bb
       -0.06165042 -0.32497483 -0.29751107 -0.002430547
000360 c7 19 03 be a2 2e a1 be 8a 56 86 3e 2c e7 be bd
       -0.12802802 -0.3148089 0.262379 -0.09321436
000370 20 97 a6 3e e6 8c 82 be ad d8 d4 bc d4 72 1d bf
       0.32537174 -0.25498122 -0.025982225 -0.6150334
000380 21 63 12 be 92 41 88 3e 3c 6c ca be a2 f6 83 bd
       -0.14295627 0.26612526 -0.395357 -0.06443526
000390 8d c8 a8 3e 31 1c 4a 3e 3a f1 b4 3e 43 50 2a be
       0.32965508 0.19737317 0.3534029 -0.1663218
0003a0 73 88 9c 3b b8 66 88 3e 98 a9 b0 be d5 06 dd 3d
       0.004777008 0.26640868 -0.3450439 0.10792319
0003b0 b4 eb ab be 17 4d 30 3d 43 7a a7 bd c1 4f ed 3b
       -0.33578265 0.04304227 -0.081776164 0.0072421734
0003c0 6d 4f 57 3e e6 89 0d be c6 c0 cd be b4 06 ae bc
       0.21026392 -0.13822135 -0.40186137 -0.02124343
0003d0 a9 4a 7b be f6 70 7c 3e 50 7c 25 3d 5d ca 37 be
       -0.245402 0.24652466 0.040401757 -0.17948289
0003e0 f4 71 80 3e 50 6d 5a 3e 3e 60 20 3e 82 e8 46 3e
       0.2508694 0.21330762 0.15661713 0.19424632
0003f0 e4 eb dd bd 1e e2 8e 3e 32 84 b1 3e b1 a6 ab be
       -0.10836008 0.2790689 0.3467117 -0.33525613

conv4.lin.weight f4 [1, 16]
000000 dc 85 ba bf 49 f0 a3 3f ab f0 8f 3f 84 9a 04 c0
       -1.4572101 1.2807704 1.1245321 -2.071931
000010 ab a1 d8 bd f6 37 89 3e 08 c4 66 3c 02 33 79 3e
       -0.10577711 0.26800507 0.014084823 0.24335864
000020 44 54 be bf ce 54 0f 3e 1d 1f 2b 3f 9e 09 dd bf
       -1.4869466 0.13997194 0.6684435 -1.726856
000030 fe 84 d6 bf fd 84 76 3d a3 71 84 3e 20 03 fe 3e
       -1.6759336 0.06018542 0.25867948 0.4961176
