backend/gnn_montecarlo.pth (torch, 14548 bytes, 7 tensors)

conv1.bias f4 [64]
0.35259965 0.0 0.38961554 0.0 0.0 0.0 0.0 0.26068768
0.0 0.37549728 0.0 0.0 0.31820506 0.0 -0.051461264 0.3692725
0.3273206 0.36960036 0.0 0.0 0.21533784 0.36430764 0.0 0.35543525
0.37757432 0.0 0.0 0.33655635 0.3752925 0.3228325 0.0 0.376623
0.3467989 0.38733158 0.0 0.0 0.0 0.0 0.30075595 0.0
0.0 0.35906634 0.0 0.38101363 0.37804118 0.0 0.24668238 0.2287067
0.0 0.0 0.0 0.0 0.0 -0.01129525 0.0 0.0
0.39023346 0.0 0.36080596 0.30313694 0.0 0.0 0.37597272 0.38379148
00000000: f187 b43e 0000 0000 b07b c73e 0000 0000
00000010: 0000 0000 0000 0000 0000 0000 db78 853e
00000020: 0000 0000 2e41 c03e 0000 0000 0000 0000
00000030: c6eb a23e 0000 0000 0cc9 52bd 4911 bd3e
00000040: 9196 a73e 423c bd3e 0000 0000 0000 0000
00000050: 8681 5c3e 8886 ba3e 0000 0000 9cfb b53e
00000060: 6c51 c13e 0000 0000 0000 0000 1d51 ac3e
00000070: 5726 c03e 4d4a a53e 0000 0000 bbd4 c03e
00000080: a08f b13e 5350 c63e 0000 0000 0000 0000
00000090: 0000 0000 0000 0000 affc 993e 0000 0000
000000a0: 0000 0000 8bd7 b73e 0000 0000 3814 c33e
000000b0: 9d8e c13e 0000 0000 4e9a 7c3e 1732 6a3e
000000c0: 0000 0000 0000 0000 0000 0000 0000 0000
000000d0: 0000 0000 b60f 39bc 0000 0000 0000 0000
000000e0: aecc c73e 0000 0000 8fbb b83e c434 9b3e
000000f0: 0000 0000 0000 0000 7f7f c03e 5180 c43e

conv1.lin.weight f4 [64, 1]
0.5240058 -0.28042498 0.42983475 -0.07414783 -0.26617822 -0.052945152 -0.041648205 0.3522325
-0.092439994 0.5470923 -0.2105315 -0.06267881 0.36440524 -0.18753979 0.022547323 0.316597
0.4232789 0.47731146 -0.20101705 -0.29315868 0.14943992 0.50913566 -0.30204138 0.3272653
0.5216508 -0.18556176 -0.13507351 0.41996557 0.5542157 0.30832076 -0.19928041 0.33685493
0.5232041 0.2817784 -0.07659221 -0.058516048 -0.11096392 -0.28629255 0.29066852 -0.25895903
-0.030812897 0.32473665 -0.21357976 0.35671964 0.38673073 -0.2960528 0.4049832 0.2813139
-0.15486194 -0.048412565 -0.047189835 -0.28667668 -0.2693256 -0.0020475255 -0.18759401 -0.14108059
0.40360054 -0.067588605 0.34569433 0.3911894 -0.04266605 -0.26880214 0.53999335 0.43984786
00000000: 3e25 063f dd93 8fbe 4d13 dc3e d1da 97bd
00000010: 8348 88be 04dd 58bd 4f97 2abd d157 b43e
00000020: 2e51 bdbd 3e0e 0c3f 9295 57be bf5d 80bd
00000030: 5393 ba3e 6e0a 40be 2ab5 b83c 0119 a23e
00000040: 03b8 d83e 2b62 f43e 6ad7 4dbe e518 96be
00000050: c706 193e b756 023f 2ba5 9abe 518f a73e
00000060: e88a 053f e703 3ebe b650 0abe ba05 d73e
00000070: 15e1 0d3f 38dc 9d3e 2a10 4cbe 4078 ac3e
00000080: b4f0 053f 4245 903e 60dc 9cbd 86ae 6fbd
00000090: 0d41 e3bd f094 92be 81d2 943e 4796 84be
000000a0: 546b fcbc e243 a63e a7b4 5abe f5a3 b63e
000000b0: 9201 c63e 3c94 97be f559 cf3e 6008 903e
000000c0: 2194 1ebe 414c 46bd 214a 41bd 49c7 92be
000000d0: 0ce5 89be c72f 06bb a518 40be 6e77 10be
000000e0: bba4 ce3e e56b 8abd d9fe b03e fa49 c83e
000000f0: 99c2 2ebd 6fa0 89be 013d 0a3f bd33 e13e

conv2.bias f4 [32]
-0.018447038 -0.01477354 0.3112257 0.33690286 -0.019421251 0.32238796 0.3472526 0.33001816
-0.016962755 0.0 -0.013726277 -0.013057198 0.3592255 0.31279075 0.0 0.0
-0.06358514 0.2985536 0.0 0.30056813 0.0 -0.02543366 0.0 0.2885924
0.0 -0.008479723 0.34663755 0.27143425 0.29875767 0.30556387 0.32060805 0.0
00000000: 3e1e 97bc b80c 72bc fa58 9f3e 887e ac3e
00000010: 5119 9fbc 0910 a53e 18cb b13e 24f8 a83e
00000020: 7af5 8abc 0000 0000 2ee4 60bc dced 55bc
00000030: 68ec b73e 1c26 a03e 0000 0000 0000 0000
00000040: ed38 82bd 04dc 983e 0000 0000 11e4 993e
00000050: 0000 0000 405a d0bc 0000 0000 62c2 933e
00000060: 0000 0000 89ee 0abc 7a7a b13e 6ef9 8a3e
00000070: c4f6 983e de72 9c3e bd26 a43e 0000 0000

conv2.lin.weight f4 [32, 64]
0.11139242 0.19998214 0.20864461 -0.23695496 0.11034894 -0.08333668 0.11017883 0.07326255
0.24535808 0.04511824 0.106098175 -0.22791311 -0.2339967 -0.080394894 0.2275122 -0.20922911
-0.09175193 0.06306595 0.11630502 -0.07973626 0.21263872 -0.09074021 0.00024852157 -0.13133392
-0.25806537 0.0050438046 0.1355116 0.1458653 -0.15440926 -0.1470238 0.23568007 -0.021496968
0.08638173 0.081411876 0.21288767 -0.17679283 -0.21505901 0.15592381 0.014573357 -0.22831807
0.009863883 0.0782872 0.0882656 -0.20603175 0.21922159 -0.18416157 -0.13457723 -0.02463983
-0.07003853 -0.18160704 -0.24224576 0.094249815 0.20941097 -0.18424308 0.060130596 -0.011531949
0.083735436 0.21954209 -0.2363184 -0.19615804 -0.046391428 -0.03567785 0.165879 0.05110099
0.0251023 0.14015943 -0.06185912 0.2250857 0.05466613 -0.017093003 0.21934164 0.008237213
0.013724744 -0.1305821 -0.055281848 -0.059316814 -0.11539127 0.14050123 -0.080808714 0.19299655
0.043016735 0.043147013 0.24337626 -0.034507275 -0.0764755 -0.057949737 -0.09889799 0.2267857
-0.2581006 -0.2499812 -0.01411292 -0.24790865 -0.11478022 0.17797264 -0.11930403 -0.09947678
0.018506281 0.17383827 0.1218704 0.16846064 0.23778209 -0.19389501 -0.03296526 0.06937295
0.23916396 -0.02473732 0.05056864 0.18911865 0.11356964 -0.0066850483 -0.1401856 -0.24989374
0.18029884 -0.15178624 0.107017666 0.044016242 0.10818699 -0.19008407 0.16269454 0.04083377
-0.21230622 -0.15899414 0.21444455 0.2050444 0.15550491 0.22608137 -0.15279149 -0.07310132
0.116853885 -0.119562924 0.56147784 0.04440087 0.20398998 -0.19210938 0.11050695 0.07462587
-0.1517053 0.25837138 -0.020132363 0.22662497 0.474512 -0.21190003 -0.0553542 0.42137983
0.22465992 0.40088764 0.06383917 -0.15379846 0.23510034 0.30436268 0.15311378 0.18064205
0.5289583 -0.15914899 0.16907218 0.22344033 0.35138208 0.4677791 -0.23932046 0.53186464
0.32048717 0.52117556 -0.18299958 -0.23877159 -0.20229131 -0.040342182 0.14207274 0.022930652
0.23866296 0.569322 -0.18807417 0.43866584 0.4941464 -0.0958865 0.3604164 0.138899
-0.24662316 -0.13277918 0.046667695 0.08968645 -0.16234988 0.022546472 0.1645053 -0.13187405
0.2525469 0.19280332 0.12461209 0.17825252 0.035196483 0.005848199 0.2626089 0.1755452
0.3136413 0.1059601 0.4863544 0.20828417 0.13575378 0.04754117 -0.15177721 0.096874565
-0.13068771 0.088232666 0.05519852 -0.048879027 0.09038499 0.24775887 -0.09954631 0.34556898
0.20681694 0.41569048 0.042777985 -0.06705263 0.49842992 0.2352068 0.02281192 0.5104731
0.28882554 -0.23717627 -0.20208406 0.28538898 0.13279594 0.45155764 0.22027892 0.5942995
0.14593185 0.3975365 0.14223236 -0.21105343 -0.06510106 -0.24492025 0.16155078 0.0941962
-0.073109 0.46799222 -0.22977939 0.52069205 0.5597595 -0.24395823 0.15899496 0.22640188
-0.104174584 -0.03820488 -0.20103696 -0.011181086 0.17354178 -0.030217528 -0.0022504032 0.014910758
0.2665576 -0.110107064 0.34964722 0.37699592 0.20987362 0.0877797 0.2990958 0.43976808
00000000: b621 e43d 1ec8 4c3e efa6 553e 52a4 72be
00000010: a0fe e13d 6cac aabd 70a5 e13d ad0a 963d
00000020: 263f 7b3e e7cd 383d 004a d93d 0e62 69be
00000030: d59c 6fbe 14a6 a4bd f5f8 683e 2840 56be
00000040: 70e8 bbbd b928 813d 5431 ee3d c44c a3bd
00000050: f7bd 593e 01d6 b9bd 004c 8239 667c 06be
00000060: 2521 84be 8046 a53b 8ec3 0a3e b75d 153e
00000070: 761d 1ebe 688d 16be 1e56 713e 691a b0bc
00000080: e8e8 b03d 45bb a63d 3aff 593e 2e09 35be
00000090: 6e38 5cbe 7eaa 1f3e 17c5 6e3c 36cc 69be
000000a0: 209c 213c 0a55 a03d 98c4 b43d fdf9 52be
000000b0: a07b 603e da94 3cbe 9dce 09be 78d9 c9bc
000000c0: 5c70 8fbd 32f7 39be 460f 78be 0c06 c13d
000000d0: d46f 563e 38aa 3cbe 804b 763d 80f0 3cbc
000000e0: 7c7d ab3d a4cf 603e 73fd 71be a7dd 48be
000000f0: f004 3ebd f022 12bd 2fdc 293e 464f 513d
00000100: 57a3 cd3c f485 0f3e fd5f 7dbd de7c 663e
00000110: 98e9 5f3d a006 8cbc 189b 603e 60f5 063c
00000120: c0dd 603c 50b7 05be 386f 62bd 30f6 72bd
00000130: 4252 ecbd 8edf 0f3e 0a7f a5bd e3a0 453e
00000140: 5132 303d ecba 303d a037 793e 8057 0dbd
00000150: 309f 9cbd b45c 6dbd 088b cabd 833a 683e
00000160: c325 84be 12fb 7fbe e039 67bc c4db 7dbe
00000170: e411 ebbd 763e 363e ac55 f4bd 7bba cbbd
00000180: 7c9a 973c a902 323e 3097 f93d f280 2c3e
00000190: 267d 733e 6a8c 46be 9506 07bd 6813 8e3d
000001a0: 66e7 743e eca5 cabc 1021 4f3d 52a8 413e
000001b0: 3397 e83d 400e dbbb d08c 0fbe 25e4 7fbe
000001c0: 42a0 383e da6d 1bbe 142c db3d 604a 343d
000001d0: 2491 dd3d 66a5 42be 6699 263e 5041 273d
000001e0: cd66 59be 5ccf 22be 5a97 5b3e 29f7 513e
000001f0: ae3c 1f3e e081 673e 5f75 1cbe 25b6 95bd
00000200: 1751 ef3d 68dd f4bd 03bd 0f3f b0dd 353d
00000210: c0e2 503e 52b8 44be 7851 e23d 73d5 983d
00000220: a258 1bbe 4149 843e a0ec a4bc 6010 683e
00000230: 3df3 f23e 52fc 58be 16bb 62bd 19bf d73e
00000240: 400d 663e 2541 cd3e 1cbe 823d 587d 1dbe
00000250: 25be 703e 6dd5 9b3e dcc9 1c3e 3bfa 383e
00000260: d069 073f f4f7 22be 4221 2d3e 8bcd 643e
00000270: 5ae8 b33e be80 ef3e 6c10 75be 4828 083f
00000280: e516 a43e c36b 053f 3e64 3bbe 8a80 74be
00000290: 7425 4fbe d83d 25bd 847b 113e 10d9 bb3c
000002a0: 1064 743e 16bf 113f 8496 40be cf98 e03e
000002b0: c200 fd3e 2460 c4bd 8088 b83e 8a3b 0e3e
000002c0: c88a 7cbe 44f7 07be a026 3f3d 88ad b73d
000002d0: 0c3f 26be 61b3 b83c 1474 283e fe09 07be
000002e0: d44d 813e 3c6e 453e a034 ff3d d487 363e
000002f0: 302a 103d 40a2 bf3b ac74 863e 1fc2 333e
00000300: 9895 a03e 9c01 d93d 7203 f93e 7248 553e
00000310: 0a03 0b3e 88ba 423d 7c6b 1bbe 2c66 c63d
00000320: 00d3 05be 54b3 b43d d817 623d 6035 48bd
00000330: c41b b93d 80b4 7d3e f0de cbbd 6bee b03e
00000340: d2c7 533e 62d5 d43e f837 2f3d e452 89bd
00000350: 3532 ff3e 0dda 703e 10e0 ba3c 5dae 023f
00000360: f1e0 933e 56de 72be 20ef 4ebe 811e 923e
00000370: a9fb 073e 9032 e73e cc90 613e 0324 183f
00000380: 296f 153e e789 cb3e 5ca5 113e 641e 58be
00000390: b453 85bd 60cc 7abe 916d 253e f0e9 c03d
000003a0: 2cba 95bd ad9c ef3e 4a4b 6bbe 134c 053f
000003b0: 664c 0f3f 30d0 79be 93cf 223e e5d5 673e
000003c0: 7c59 d5bd b87c 1cbd a2dc 4dbe e030 37bc
000003d0: f0b4 313e c08a f7bc 807b 13bb 404c 743c
000003e0: 3d7a 883e d07f e1bd f604 b33e 9c05 c13e
000003f0: 1ce9 563e d8c5 b33d 1623 993e 4829 e13e

conv3.bias f4 [16]
-0.021984672 0.24270654 0.0 0.22179443 0.24876381 -0.009682977 0.26179197 -0.014228617
0.0 -0.011723566 -0.02190059 0.2362584 0.0 0.0 0.0 0.22173843
00000000: 3319 b4bc 1088 783e 0000 0000 141e 633e
00000010: f1bb 7e3e 59a5 1ebc 9909 863e 251f 69bc
00000020: 0000 0000 3314 40bc de68 b3bc b9ed 713e
00000030: 0000 0000 0000 0000 0000 0000 660f 633e

conv3.lin.weight f4 [16, 32]
0.2785082 0.2264698 0.22258942 -0.13800727 0.06211651 0.13869998 0.25716642 -0.29181492
0.23503232 -0.33882478 0.029175833 0.10204164 -0.1726676 -0.04853186 0.10981349 0.11404507
-0.28031588 -0.31885463 -0.121558465 -0.012726594 0.13117819 -0.2795537 0.35223436 -0.30937952
0.25966686 -0.34437713 0.287509 0.3217814 -0.11492702 -0.32741892 0.13158263 0.11271117
0.24080199 0.25712523 -0.04753278 0.27723277 0.230732 0.5508686 0.43028587 0.12255765
0.09189119 -0.3440852 0.2664275 0.08714567 0.4731045 0.3496996 0.3019852 -0.26075387
0.12273414 0.29586256 -0.20546614 0.4343654 -0.23856696 0.062498465 -0.19253872 0.5600546
-0.08438216 -0.30148137 0.21896593 0.046876553 0.32829112 0.38901213 0.6282866 -0.28144813
0.14972432 -0.14934437 -0.20345114 -0.24632026 -0.24131039 -0.118426576 -0.10625528 0.30246598
0.05292405 -0.2007813 0.24382934 0.35300687 0.26431134 -0.2584139 0.26418954 0.04372563
0.2605807 -0.233677 -0.01048858 -0.22125047 -0.32824534 0.095117934 0.25435653 -0.14048998
-0.034281656 -0.09830622 0.019273417 0.22982335 -0.07272548 0.13459545 0.33017045 0.16262968
-0.028798752 0.16448575 0.582513 0.6894665 -0.11553683 0.49434584 0.45604572 0.22767489
0.011603902 0.26002705 -0.2545962 -0.0017232802 0.48279083 0.28733057 -0.20817648 -0.3035825
0.03810604 0.24688634 -0.14298289 0.5008994 -0.28555843 0.042075835 -0.0070891418 0.5544173
0.0063735307 -0.122896425 0.5028038 0.49938667 -0.011093916 0.53119326 0.23773088 0.051447056
-0.25718924 -0.06482352 0.6227789 0.44064596 -0.3130828 0.5691833 0.46867633 0.19087952
-0.13768275 0.24171145 -0.28492737 -0.08612648 0.29300752 0.61651146 -0.016526453 -0.24857153
-0.22103356 0.2581137 0.35180658 0.3301375 -0.1654408 -0.2472908 0.21828236 0.43743306
-0.06648809 -0.08945008 0.6595792 0.089817345 0.68769425 0.3670036 0.30016202 0.02261857
-0.14535429 0.26532143 0.14538814 -0.22373667 -0.00078000023 -0.34074643 -0.02721439 -0.12748742
0.20534216 -0.24466549 0.33660558 0.068162255 -0.34718707 0.07866102 -0.076120324 0.2839917
0.18053128 -0.21176364 -0.022987017 0.08707153 -0.3258834 -0.09540853 -0.3271829 -0.0782213
-0.13362873 -0.039537072 -0.30557707 -0.20884536 0.2252044 -0.08622673 0.064973764 0.26696438
-0.008533656 -0.25935745 0.33733964 0.39695546 -0.075084604 0.59080553 0.275099 0.6324796
-0.053251017 -0.2119562 -0.24603939 0.13945356 0.19051465 0.66877544 0.32458812 -0.116439015
-0.16505197 0.19490433 -0.34125623 0.52954894 -0.17935199 -0.00789952 0.12560123 0.031475533
-0.018453449 -0.11361734 0.042892206 0.67654485 0.5895593 0.020477844 0.1091577 -0.14016284
0.26511502 -0.1623494 0.035509434 -0.2500912 -0.30854475 -0.21126075 -0.017261917 -0.14446749
0.31821355 0.09813616 0.15136424 -0.35545814 -0.17037356 0.0030426376 0.12560637 0.041780803
-0.19380718 0.012994013 0.12046892 0.24624014 -0.12091332 -0.3058828 0.35000458 -0.1940344
-0.2300501 -0.34617582 -0.20911883 0.18121274 -0.25297713 -0.131675 -0.29304147 -0.266303
00000000: a098 8e3e b3e7 673e 7bee 633e c751 0dbe
00000010: e26d 7e3d 5e07 0e3e 51ab 833e c468 95be
00000020: 50ac 703e 717a adbe 2802 ef3c 35fb d03d
00000030: c6cf 30be 58c9 46bd e5e5 e03d 7690 e93d
00000040: 9085 8fbe ea40 a3be a5f3 f8bd 3483 50bc
00000050: 9353 063e aa21 8fbe 1058 b43e fe66 9ebe
00000060: 0ef3 843e 3352 b0be 6134 933e 88c0 a43e
00000070: dc5e ebbd 74a3 a7be 99bd 063e 1dd5 e63d
00000080: cc94 763e eba5 833e bbb1 42bd 74f1 8d3e
00000090: 0245 6c3e b905 0d3f 6e4e dc3e 81ff fa3d
000000a0: 7331 bc3d ef2b b0be 2f69 883e 6e79 b23d
000000b0: c13a f23e d30b b33e ce9d 9a3e 8881 85be
000000c0: 095c fb3d 4c7b 973e b765 52be 2465 de3e
000000d0: e64a 74be 64fe 7f3d df28 45be bd5f 0f3f
000000e0: 8ed0 acbd c45b 9abe 9b38 603e a101 403d
000000f0: c615 a83e 992c c73e 64d7 203f f819 90be
00000100: 5551 193e bbed 18be 7f55 50be 613b 7cbe
00000110: 121a 77be a289 f2bd 5e9c d9bd d2dc 9a3e
00000120: e3c6 583d 9d99 4dbe 66ae 793e 51bd b43e
00000130: d153 873e d44e 84be da43 873e a519 333d
00000140: d56a 853e 0649 6fbe 4bd8 2bbc 7c8f 62be
00000150: c60f a8be 31cd c23d 053b 823e 9bdc 0fbe
00000160: ec6a 0cbd c554 c9bd 49e3 9d3c d056 6b3e
00000170: 19f1 94bd 64d3 093e 1a0c a93e 6588 263e
00000180: 5ceb ebbc f46e 283e 921f 153f e080 303f
00000190: 939e ecbd e61a fd3e d37e e93e 9b23 693e
000001a0: 4b1e 3e3c 4422 853e 6f5a 82be b0df e1ba
000001b0: 5c30 f73e fe1c 933e 372c 55be 2a6f 9bbe
000001c0: 1415 1c3d c6cf 7c3e 1b6a 12be f13a 003f
000001d0: b734 92be b657 2c3d 084c e8bb 4bee 0d3f
000001e0: 0dd9 d03b 1fb1 fbbd c0b7 003f 9caf ff3e
000001f0: 42c3 35bc 48fc 073f b96f 733e 26ba 523d
00000200: 4fae 83be 32c2 84bd 706e 1f3f 599c e13e
00000210: 644c a0be ffb5 113f 58f6 ef3e ec75 433e
00000220: b5fc 0cbe 3583 773e 00e2 91be 1463 b0bd
00000230: 1505 963e b2d3 1d3f 7c62 87bc 8989 7ebe
00000240: 9f56 62be 7b27 843e fe1f b43e c807 a93e
00000250: 5069 29be cd39 7dbe 6985 5f3e 3af7 df3e
00000260: e82a 88bd 9b31 b7bd 2fda 283f 28f2 b73d
00000270: bb0c 303f e5e7 bb3e d6ae 993e 944a b93c
00000280: c1d7 14be 36d8 873e a1e0 143e 3a1b 65be
00000290: ee78 4cba 5176 aebe b6f0 debc 108c 02be
000002a0: 3745 523e 9789 7abe 9157 ac3e a798 8b3d
000002b0: 81c2 b1be 0719 a13d f9e4 9bbd 5c67 913e
000002c0: 31dd 383e 91d8 58be 454f bcbc 8f52 b23d
000002d0: 30da a6be 8c65 c3bd 8484 a7be 7d32 a0bd
000002e0: f8d5 08be a0f1 21bd 9974 9cbe 8fdb 55be
000002f0: fb9b 663e a497 b0bd f710 853d 8eaf 883e
00000300: bfd0 0bbc 80ca 84be c8b7 ac3e bf3d cb3e
00000310: f5c5 99bd 083f 173f c7d9 8c3e 2fea 213f
00000320: bd1d 5abd 0c0b 59be c0f1 7bbe eacc 0e3e
00000330: 4616 433e de34 2b3f 6a30 a63e 9477 eebd
00000340: 6203 29be 0095 473e 23b9 aebe 8590 073f
00000350: 0ca8 37be fd6c 01bc 9c9d 003e 7dec 003d
00000360: b02b 97bc 35b0 e8bd bdaf 2f3d 0b32 2d3f
00000370: 5ced 163f 27c1 a73c 128e df3d d986 0fbe
00000380: 28bd 873e ec3e 26be 5772 113d f40b 80be
00000390: 94f9 9dbe bd54 58be dd68 8dbc 49ef 13be
000003a0: e3ec a23e 9cfb c83d 3aff 1a3e 9cfe b5be
000003b0: 6876 2ebe fd66 473b f59e 003e 5922 2b3d
000003c0: 6475 46be d7e4 543c 69b8 f63d 6026 7c3e
000003d0: 67a1 f7bd ac9c 9cbe cd33 b33e f4b0 46be
000003e0: 4192 6bbe f53d b1be 3f23 56be d58f 393e
000003f0: 3886 81be d0d5 06be 8809 96be de58 88be

conv4.lin.weight f4 [1, 16]
-0.39005852 0.31128845 -0.37602484 0.9164635 0.9503533 -0.4660785 0.50328463 -0.35352933
-0.4778939 -0.32593653 -0.5023334 0.6384622 0.08434603 0.03540569 -0.532095 0.78135896
00000000: c0b5 c7be 3361 9f3e 5486 c0be 5a9d 6a3f
00000010: 5b4a 733f d7a1 eebe 43d7 003f cc01 b5be
00000020: 82ae f4be 27e1 a6be ec98 00bf 4272 233f
00000030: 9dbd ac3d 8f05 113d 6137 08bf 2407 483f
